run/trained_q_network.pth (torch, 262380 bytes, 6 tensors)

layers.0.weight f4 [128, 244]
00000000: 4f28 99bc 44fe 603d 4542 81bd 6030 023c
00000010: 10ce e6bc 02fd 64bd 9098 853c 72bf 723d
00000020: 4094 d0bb 635d ec3d d876 0d3d ba1a 763d
00000030: c4c2 80bd f0ad 33bd a862 db3c 0218 4e3d
00000040: fab8 8bbc 68ff 383c b3e6 90bd 8d27 6d3d
00000050: 7605 1e3d 4878 a53c f86d 1c3d d2d5 3d3d
00000060: 2677 96bc 8cc2 b63c 2aac 46bd d4e1 a93c
00000070: d286 05be fc7f c53c 207d 023b 10cf 5e3c
00000080: c444 1cbd 1011 083c cec4 50bd 982c 4bbd
00000090: 8487 1c3d a2e2 cb3c 41c7 1c3d 48e4 283d
000000a0: 0870 a9bb 8288 413d cc8e e93c f0dd fa3b
000000b0: c421 6fbc 5f1c ecbd 59ff ca3b de97 533d
000000c0: 9276 38bd b060 63bd 9072 debc cce8 0bbd
000000d0: 0a12 30bd 00ff 643a fab2 783c f7ee a2bb
000000e0: a284 82bc c4c8 cabc a09a 033d 0028 e139
000000f0: a81c 7abc 6c40 d6bc 64de c93c c83e 243d
00000100: 8c11 cb3d 52a3 a7bc 0cfa 823d 10e2 b63c
00000110: e036 133d 002a 8639 d2c1 42bd 081f 9e3c
00000120: 90ce 2e3d a7dd 083d 78b0 70bc 141e 593d
00000130: 13fe 7bbd 8ab5 5ebd 26be 12bd 7454 553d
00000140: aca7 633d 1ebd 673d 44f7 a2ba 1d4b 233e
00000150: 29a6 433d a621 d7bc 2440 dcbd ec78 c1bc
00000160: 4056 b1bc 0083 e43b 3275 26bd 9fc2 fabc
00000170: c902 39bd cf4d 393d cbf8 afbc b1cf 263c
00000180: 94a6 8c3b 5869 133d 726c 63bd 7c60 7e3d
00000190: 58cb 07bc 2d64 97bd 39d9 f03b 3996 943c
000001a0: b2de 77bd be0a 623c 98e4 923b 8a03 0fbd
000001b0: 78d1 443c 9705 c53d 3221 fd3d 29c6 e5bd
000001c0: b2fa 1ebd d3ca abbd 256a 91bd 44bc f4bd
000001d0: 0e2c e2bd 00d4 0339 6454 c0bc 3cf8 b1bd
000001e0: 1da4 3abd 2c43 cebd dbe1 e13c 20bb 1abd
000001f0: 134c f6bd 1c87 97bd c407 f0bc c280 233d
00000200: 8a19 883d 3cdd 163d 2c16 013c c01e bbbd
00000210: a270 833c cb31 51bd 1bcc 5a3c b028 de3c
00000220: 72b6 1a3b 7faf 383d 377b e5bc ac71 92bd
00000230: 3fac 173d a398 58bd c8f5 f23c 1823 7f3d
00000240: 26fc 263d 32b6 f33d 51ee 84bb 2996 c03d
00000250: 8d68 023d 1c7f 31bd 3a57 0f3d 12e4 46bd
00000260: 1d96 81bd c277 93bc 6de1 3f3d dc04 af3d
00000270: 47fa ab3b d901 6f3d a1b8 b93d 53b2 bdbc
00000280: 984a ba3c 1e93 0a3d f9b5 a33d 3c60 0d3e
00000290: 390d adbd 8dba 853c 333f 8d3c 01e2 153e
000002a0: 4a67 433e 4b51 833c c836 7a3d 5abc 253e
000002b0: f503 4e3b 48e7 7cbc 9a93 b2bd 5fc8 d33d
000002c0: 7f00 2abc f218 12bd fcbf c03d c0d1 c53c
000002d0: e21b 483d 3429 1b3e 4c20 053d f38c 1e3e
000002e0: b865 f7bd e7a4 003e 0818 893c 925d dc3d
000002f0: c6ee 623d b956 fa3c 41e8 1dbd e54f e13d
00000300: 0e35 cf3d 83f9 023e 395a 053e 385d 233d
00000310: 8d69 f33d 02ff 3abd d5fc 0bbb 65d1 e33c
00000320: e1ee a3bc 3512 f23d 4099 463c 3cf9 74bc
00000330: 19f2 833c c26a 223c f816 8abb d5e2 223d
00000340: 18f5 19be 33f4 3cbc 71e0 d73c 0212 dd3c
00000350: ca78 9d3d 388e 1fbd e121 9ebd 88dc 603c
00000360: c2cb 0dbd 1284 fcbc 7ffd 743d 1285 093d
00000370: f102 cb3d ae02 ce3d 8c5d 3d3b 6b0f 953d
00000380: 143e 573d 8a10 3b3d bacd 183d 016e 523c
00000390: 09a9 ca3d 0c3f 4c3e 9d20 ba3c a294 c73d
000003a0: 33c1 d23d f025 883c 3606 2b3d 5bc4 a63d
000003b0: 100d 63bc 4a27 a6bc bd95 7a3d 4832 8ebb
000003c0: cbe3 ae3d f89c d0bc a0d7 c0bb d25c fb3c
000003d0: 6f2f 843d b3cb cf3d c944 75bd 749e 7ebc
000003e0: a0a0 353d 90f6 823c 1e73 663d 1625 333d
000003f0: 1c14 6ebd fc38 163e 59f2 65bc d996 35bd
-0.018695978 0.054929987 -0.06311468 0.007946104 -0.02817443 -0.05590535 0.016308099 0.059264608
-0.006365329 0.115412496 0.034537166 0.060084082 -0.062871486 -0.04386705 0.026780441 0.050315864
-0.017055977 0.011291362 -0.070752524 0.057899047 0.038579427 0.020198956 0.038190812 0.046346493
-0.018367361 0.022309564 -0.048504032 0.020737566 -0.13039711 0.02410888 0.0019911006 0.013599172
-0.038151518 0.008304849 -0.050968938 -0.049603075 0.038215175 0.02488834 0.03827596 0.04123333
-0.005170826 0.047249325 0.028510474 0.0076558515 -0.014595453 -0.11528849 0.0061949906 0.051658504
-0.045034952 -0.05551213 -0.027154237 -0.03415756 -0.042985953 0.0008735508 0.01517939 -0.0049723345
-0.015932385 -0.024753936 0.032129884 0.00042945147 -0.015265621 -0.026153766 0.024642177 0.040098935
0.09915456 -0.02046362 0.06395349 0.022324592 0.035941005 0.00025589764 -0.047548123 0.019301906
0.042677462 0.03341451 -0.014690511 0.0530072 -0.0615216 -0.054372348 -0.03582587 0.052082494
0.055579826 0.05657684 -0.001243331 0.15946622 0.047765885 -0.026261162 -0.10754421 -0.02361723
-0.021647573 0.006973624 -0.04063911 -0.03061038 -0.04516867 0.04524022 -0.021480938 0.010181353
0.0042923186 0.035989136 -0.055523343 0.062103733 -0.008288227 -0.07392154 0.0073501137 0.018138038
-0.060515113 0.013796506 0.004482817 -0.034915484 0.012012832 0.09620207 0.12359847 -0.11219437
-0.0388133 -0.08388295 -0.071003236 -0.11949971 -0.11043559 0.0001257211 -0.02347774 -0.08689925
-0.045566667 -0.10071406 0.027573517 -0.037776113 -0.12026229 -0.07398817 -0.029300578 0.039917715
0.06645496 0.03683208 0.007878821 -0.091367245 0.016044918 -0.051072877 0.013354327 0.02711901
0.002360728 0.04508924 -0.028012855 -0.071505874 0.0370295 -0.05287994 0.029658213 0.062289327
0.04076781 0.118999854 -0.00405673 0.09403641 0.03183799 -0.04333411 0.034995295 -0.04855735
-0.0632746 -0.01800144 0.046845842 0.08545849 0.0052483412 0.05835137 0.09068418 -0.02315632
0.022740647 0.033831708 0.07993693 0.13806242 -0.08449788 0.016324306 0.01724205 0.14636995
0.1908237 0.016029974 0.0610874 0.16185132 0.0031435464 -0.015436001 -0.08719559 0.10340952
-0.010376095 -0.03566832 0.09411618 0.024147868 0.048854716 0.15152436 0.032501504 0.15483455
-0.12079948 0.12562905 0.016735092 0.107600346 0.055403493 0.03055893 -0.038551573 0.11001567
0.10117541 0.12790494 0.13022698 0.039883822 0.118853666 -0.04565335 -0.0021360416 0.027809808
-0.020011367 0.11819879 0.012121499 -0.014952 0.016106652 0.009913148 -0.004214164 0.039767105
-0.15034902 -0.011532831 0.02635214 0.026986126 0.07689054 -0.03895399 -0.07721306 0.013724454
-0.034618147 -0.030824695 0.059812065 0.03357417 0.099126704 0.10059105 0.002889487 0.07278331
0.052549437 0.04567007 0.03730557 0.01284361 0.09895522 0.19945925 0.02272063 0.09745146
0.10290756 0.016619653 0.04175397 0.081429206 -0.013858095 -0.020282406 0.061177958 -0.00433949
0.08539542 -0.025465474 -0.0058850795 0.030683909 0.0645436 0.101462744 -0.05988005 -0.015540708
0.044342637 0.01598671 0.056262128 0.04373654 -0.058124647 0.14670175 -0.014034831 -0.044333313

layers.0.bias f4 [128]
00000000: fb6c 2bbd 7578 103e 0f0a 2fbd fa88 ca3d
00000010: ef1d c93d 1557 b73d d474 b93c 43f7 d53d
00000020: 4fa2 073d 0929 4fbb 3aa8 be3d 57d0 c33d
00000030: f311 8d3d 903b f73c fae5 b83d 892e 1cbb
00000040: 701d efbc 1f77 33bd aaba a33d 0421 bc3d
00000050: 4682 7dbd 4dd9 233e 1f68 353c 2f15 19bd
00000060: 25dd 813d 18f1 693d 54e7 e63d 6dad a23d
00000070: ded0 20bc c630 7d3c 7f3b e0ba bd7c ec3d
00000080: 2092 ab3d 1391 713d 1ea4 ca3d a154 94bb
00000090: d438 55bc 35a9 c0bc 84ec c0bd f488 073e
000000a0: 3a90 e03c 7f68 803d 7272 cd3d e99b e73d
000000b0: 5459 c0ba 1f9a ed3b fb02 823d a8d1 b73c
000000c0: 7487 81bd 97ec 8cbd 289e f2bc 4d3a f9bb
000000d0: 081c 0c3d 957c d93d 6e20 a13d 86e7 4e3d
000000e0: 1897 0c3e 9d66 bd3d 3a4b fabc de86 053e
000000f0: 5d3e a73d 0020 ba3c 23f1 d33d 9217 d6bd
00000100: 6afb 963d 47d3 fb3b 959a 0d3e 5764 1f3e
00000110: 7e14 943b 99f2 c0bd a1e1 eebb ec1c c23d
00000120: 06e1 343e 0ccf 003d e08e 87b8 7fdb 86bb
00000130: 6d76 51bd ab3e 783d 405d c83d f5d5 4ebc
00000140: 1a9d 92bd df69 99bd cee4 b63d 67a8 7c3c
00000150: ac98 353d 88e9 e1bc 7f7b 22bd a8eb 713c
00000160: 946e f13d 9d0c f73d 6436 90bb c289 e43d
00000170: e30f 433c 0e5d 043d 92b7 403c 51d6 473d
00000180: e3f3 2b3b a123 c6bc 6e75 053d 5187 013e
00000190: 2216 2bbc a450 613b 0eac 41bd a15c 6c3d
000001a0: a9a9 b03d 60ab afbb 14f3 9a3c ca77 bb3d
000001b0: 536d e33d eac3 bcbc 9713 fb3c 0a1c 4a3d
000001c0: fcdb 05bd e659 43bc eb7c cebc 6d74 70bc
000001d0: 2b42 f03d dc78 c93d 1daa bc3d 5082 f53c
000001e0: e556 8c3d 24af 673d 1b65 f4bc c669 ab3c
000001f0: 6ab7 803c 29b8 6f3d 94de bc3d 3329 a83d
-0.04185198 0.1410845 -0.042734202 0.098894075 0.098201625 0.089521565 0.022638716 0.10447552
0.033113774 -0.0031610152 0.093094304 0.09561222 0.06888189 0.030179769 0.090282395 -0.0023831448
-0.029188842 -0.043814775 0.07994588 0.09185985 -0.061891817 0.16000862 0.011072188 -0.037373718
0.06341008 0.05711469 0.11274591 0.079432346 -0.009815423 0.015453523 -0.0017107575 0.115472294
0.083774805 0.058976244 0.09894584 -0.00452669 -0.013014037 -0.023518184 -0.09420112 0.13235837
0.027412523 0.06269931 0.10031594 0.113090344 -0.0014675059 0.0072510387 0.06348225 0.02243884
-0.06324664 -0.068810634 -0.02961643 -0.007605827 0.03420642 0.10619465 0.078675136 0.050513767
0.13729513 0.092480876 -0.030553449 0.13039729 0.08166192 0.022720337 0.103487276 -0.104537144
0.07372172 0.0076850983 0.138285 0.1556562 0.0045190444 -0.09421272 -0.0072900807 0.09478173
0.17663965 0.031447455 -6.463914e-05 -0.0041155214 -0.05113833 0.06060664 0.09783411 -0.0126242535
-0.07158871 -0.074908964 0.0893036 0.01542101 0.044335052 -0.027577177 -0.039668556 0.0147656575
0.11788669 0.12062953 -0.004401015 0.11159088 0.011905643 0.032315306 0.011762517 0.048788372
0.0026237897 -0.024186911 0.032582693 0.12649275 -0.010442289 0.003438034 -0.047283225 0.057705525
0.0862611 -0.0053610057 0.018914737 0.09153707 0.11104836 -0.023042638 0.03064899 0.049343146
-0.032680497 -0.011923289 -0.02520605 -0.014676196 0.117313705 0.09837505 0.09212134 0.029969364
0.06852511 0.05656351 -0.029833367 0.02092446 0.015712459 0.05852524 0.09222141 0.08210983

layers.2.weight f4 [128, 128]
00000000: 0156 3fbd ae1e 9cbd 3f76 e83c 67bf 7dbd
00000010: ed17 a8bd 2dcc 233d e047 dfbd e057 06bc
00000020: 6cac e23c 4b05 af3d 6902 c9bd db2e c23c
00000030: e54d b73c a9d4 02bb ce6b 21ba 56d5 453d
00000040: 9146 073d 3f4a 083c b4f7 0b3c a8e3 8dbd
00000050: 0db9 873d 3270 113d 2e9c 8b3d 2e7b 75bc
00000060: d157 663b 87b3 da3c 387c d2bd bd99 a7bd
00000070: 70c6 c23c 75d1 cfbd 93f2 8cbd eef4 6ebd
00000080: c5e4 223d 937b 6bbd d80b 823d 826e 433d
00000090: 91be e43c f0ef 753d 1eea d83c 3489 653d
000000a0: 01c9 f63c ab34 84bc a310 45bc 6450 68bd
000000b0: 8e7e 02bd f9eb 803d a5ba 4abd 3d13 aa3d
000000c0: f284 fe3a 003a fbbc 971a a33c 8624 ce3c
000000d0: 6f17 90bd d480 92bd fd92 00bc 0052 8cbc
000000e0: 79f7 8fbc 6c18 283d 4faf 943d b9cc a9bd
000000f0: d7a6 36bd 18be 433d 57a1 bcbc 9704 d93d
00000100: 4f00 bdbb 670e 2a3c f3e2 81bd f9a5 023d
00000110: 9a68 023d cf52 a83d 9de0 a9bd b5f9 10bd
00000120: cc5f 1c3b 85f7 293d 4910 6abc df17 f63c
00000130: d96c 813c f54f a33c 6797 bebd f63c 47bd
00000140: 513b ab3b 4ca5 973a 61d5 6e3b 1713 383d
00000150: 8145 963d 7316 9d3d 7158 99bd 5cd8 eabb
00000160: fec9 903d 4998 8c3d da14 aabd 4ef4 95bd
00000170: 5f98 d63c 4680 96bd 45db 373c 69e8 3d3d
00000180: ba08 b03d a737 16bd b8db 5a3d 9b29 a4bd
00000190: 5aba a63d 8075 9cbd dba4 9a3c 0a5d 29bd
000001a0: b93c 623d dc87 813d 5222 c5bc 8f71 f6bc
000001b0: 603d 2fbd 9721 a0bd f3ae ca3d 0d22 c8bc
000001c0: 3537 77bd 9cd5 c2bc 9a09 83bd 7381 c7bc
000001d0: de2d 853d 819a 363d 55eb 233d 0f52 2a3d
000001e0: 9c3c 7e3c 15ee 5cbd 0212 8a3c 7762 9ebd
000001f0: da13 81bd 06c8 4e3d 1188 d2bd 54c6 8a3c
00000200: 41ea a43d c925 baba 0d5b af3d c8c6 b83d
00000210: 10b0 1a3b 3e66 883d 69e5 c23c 442a 7b3d
00000220: 1d6f 273d 181c babd 2b68 693d a75a 703d
00000230: 8590 003e 7fdb 8e3d e3ba 413d 046f a43d
00000240: c739 b63d 5d88 273d 6958 ba3c d436 34bd
00000250: 35ec c43d 8dda ecbc 3359 0b3d 80b7 de3c
00000260: 3c87 173e 7c11 33bd 8b61 3dbb 9a59 433d
00000270: 4a7c 0dbd 669d 1b3d d2aa 223d feef bb3a
00000280: 806b 993d 5640 1fbd 2d97 d8bd d1be 0cbe
00000290: 7120 ad3d 9b6a 643b 9e7b 9abd 99b2 233d
000002a0: 75f8 4c3d 5478 653d b004 a23d 2c57 0ebd
000002b0: 7f33 843d 5762 233b 44a3 813d 13ce 6d3d
000002c0: d0df 0d3d 3d75 c23d b401 a13c 3a3b db3c
000002d0: de93 b2bd c484 61bd 398e a43d aca2 f63d
000002e0: 11bf 7dbc 939b af3d f474 3ebd d99d ea3d
000002f0: 4cba 903d a448 9e3c 861f cabc 5a32 8bbd
00000300: 1fe7 c0bd 1e8c 28bd c32c afbd e16d 2abe
00000310: cc7a 993d 6431 053e a2d5 233d cf8f 013d
00000320: 794c e1bd 5c9f 973c 8edf 02b9 9246 8b3d
00000330: 2750 753d 2820 1c3c e63b 613d 6ad9 be3d
00000340: a270 563d c7a4 4dbd 77a4 313c cb17 dabc
00000350: 396f 8b3c c85f 7d3d 3763 31bd fb7e 223d
00000360: 96b5 823d 8088 883d 0c6f b3bc 4e64 be3d
00000370: 0ecf 903d 6c0f 22be 5a1f 87bd 209b 283d
00000380: 497d 3bbd cbc1 30bd eb3e d53d 4ea2 8b3d
00000390: 2804 5dbc 9650 66bc 9846 c73d 8f08 44bc
000003a0: d184 36bc ca2f 19bd a7cb c43d 2a49 363d
000003b0: a28e 8c3d 2d18 323d cdc6 2abc 48d8 833b
000003c0: 209b 043d 4b5a 523d a941 ab3d 4cc0 c03d
000003d0: cd28 0abc 23aa ee3d a395 b83d 7052 143e
000003e0: 9f0b 693d b548 143e e21e b63d beb1 1fbb
000003f0: 7dc3 61bd 1497 83bc 38ce 48bd 14da 4f3d
-0.04671288 -0.07623039 0.028376697 -0.061950114 -0.082076885 0.03998964 -0.10902381 -0.008199662
0.027670108 0.085459314 -0.09814913 0.023703983 0.02237601 -0.001996318 -0.0006157727 0.048299156
0.03302628 0.008318483 0.008542944 -0.069281876 0.066270925 0.03550739 0.06816898 -0.014982982
0.0035147558 0.026696933 -0.10277599 -0.0818362 0.023776263 -0.10147373 -0.06882205 -0.058339052
0.039768953 -0.057490896 0.06349915 0.04771281 0.0279229 0.060043275 0.026478823 0.05603905
0.030125143 -0.016138395 -0.012027892 -0.05671729 -0.031858973 0.06295008 -0.049494404 0.08304451
0.0019418283 -0.030667305 0.01991014 0.0251639 -0.070357196 -0.07153478 -0.007847545 -0.017128944
-0.017574059 0.041038916 0.0726 -0.08291001 -0.044592705 0.04778871 -0.023026152 0.105965786
-0.005767859 0.01037941 -0.06342115 0.031896565 0.031838037 0.082189195 -0.08294795 -0.03539439
0.002386081 0.04149582 -0.014286109 0.03004068 0.015798973 0.019935587 -0.093062215 -0.04864212
0.005225577 0.0011569648 0.0036443102 0.04494008 0.073374756 0.076702975 -0.07487572 -0.0071669053
0.07069777 0.068649836 -0.08304758 -0.07321988 0.026195703 -0.07348685 0.0112217115 0.04636422
0.085954145 -0.036674168 0.053432196 -0.08015748 0.081410125 -0.07639599 0.018877437 -0.041348495
0.05523369 0.06324741 -0.024064217 -0.030083446 -0.04278314 -0.07818907 0.0989665 -0.0244303
-0.060355384 -0.023783498 -0.06398316 -0.024353718 0.06502889 0.04458094 0.040019352 0.041582163
0.01551738 -0.05393799 0.01685429 -0.077336244 -0.063026145 0.050483726 -0.10279859 0.016940273
0.08052493 -0.0014201935 0.085622884 0.090222895 0.0023603477 0.06660126 0.023791032 0.061319605
0.04087745 -0.0908739 0.056984108 0.058680203 0.1255513 0.06975459 0.04729737 0.08028987
0.08897739 0.04090153 0.022747235 -0.0439976 0.096153654 -0.028912807 0.034020614 0.027187109
0.14797682 -0.043717846 -0.0028897251 0.047692873 -0.03454236 0.037991904 0.03971369 0.0014338491
0.07491207 -0.038879715 -0.105757095 -0.13744666 0.08453453 0.003485358 -0.07543109 0.039965246
0.050041635 0.056022957 0.0791105 -0.034751102 0.064551346 0.0024930441 0.063299686 0.058057856
0.034637272 0.09495018 0.019654132 0.02676164 -0.0871961 -0.055058256 0.08034939 0.12042746
-0.015487448 0.08574595 -0.046498254 0.11455888 0.07066783 0.019321747 -0.024673235 -0.06796713
-0.09419083 -0.04114925 -0.085534595 -0.16643478 0.07494125 0.13007122 0.039998658 0.031631287
-0.11000914 0.018508606 -0.00012481047 0.068005696 0.059890892 0.009529151 0.054988764 0.09318812
0.05235351 -0.050205972 0.010842434 -0.026622673 0.017020809 0.061858922 -0.04330751 0.03967188
0.06382291 0.0666666 -0.021903537 0.09296475 0.070707425 -0.15826195 -0.06597777 0.041163564
-0.045773778 -0.043153565 0.10412391 0.068180665 -0.01348976 -0.014057299 0.097302616 -0.011964931
-0.011140064 -0.03739909 0.09609156 0.04450337 0.068631425 0.043480087 -0.010423374 0.0040235855
0.0323745 0.05135564 0.08362133 0.09411678 -0.008432579 0.11653545 0.09012916 0.14484572
0.05689585 0.1448086 0.08892609 -0.0024367417 -0.055118073 -0.01606325 -0.04902479 0.050745085

layers.2.bias f4 [128]
00000000: b527 6cbd 0222 643d c878 8dbd 976a b43c
00000010: badb 93bd 4bfd 48bd 4f30 9c3d 16cf 98bc
00000020: 04df 8bbd 601c dd3d 15f8 b7bc ad00 e73d
00000030: b9f8 723d e1c6 f23c bdb2 22bd dfe1 e83d
00000040: ee73 9d3c 93f4 623d 544e 023e 35af b2bd
00000050: b63c ec3c c832 87bc bed7 53bc 0941 d33c
00000060: 6d53 2abd 587d 15bd fa93 173e 4ee2 1b3d
00000070: 3c9c aa3c b424 4aba 588d 513c 5078 703d
00000080: d9ec 6f3d 4a4f 6fbd fb78 b83d 68bf 113d
00000090: 4082 e1bc a884 32bd 59bc 87bc a403 2f3c
000000a0: 12bf 88bb aca5 7dbd cb04 633d 3c86 1c3e
000000b0: 4ecc b5bd 07ec 763d 6cb2 943d 19cb 8b3d
000000c0: 98f5 32bc 8c01 12bc db97 bc3d ab92 263d
000000d0: c3b6 fd3d 98b9 003d a57a bd3d 1a3f aebd
000000e0: 45d8 d23d cb64 65bd 20c8 533d 1f9c 493d
000000f0: 7993 e83d 7d00 743d 3224 273e 231d c03c
00000100: 8b4a ca3c 7dae 8ebd fad8 bd3b c5ee 6e3d
00000110: 6940 b4bd 9c23 78bc b661 df3c 20cb 643b
00000120: 96ca 8cbd 360f b4bc 63dd b03b bb65 60bd
00000130: 9b7b 9cbc 238d 7f3d 274f 9b3d 82cd 84bd
00000140: 7493 913d 2edb bb3d 43fc 3bbd 2d2a 443d
00000150: 4778 663d 4950 43bd 84d6 54bd e8e0 893d
00000160: d679 99ba 2d1f 6a3d c079 4d3c ebd7 a83d
00000170: 7689 2dbd f2c0 a03b 5814 b03d 7342 a53c
00000180: a272 a2bd 7bd9 583e e70d 663d 06ad 903b
00000190: dbe7 e53c 7108 c7bd 6016 813d 76e8 f73d
000001a0: 2b10 9ebd 746a bebd 4c0b 903d 3186 bebd
000001b0: baa8 e73d 1e5e a13d 56d3 a6bd 6aff 8bbd
000001c0: 9ae2 fe3d b98d e6bd d92c 383d 8d35 99bd
000001d0: 7bd3 003e 9714 013d 07da 11bd 4132 693d
000001e0: 3a69 d63c d62c fcbc 1951 8abd cfac 423e
000001f0: 16ef e2bd 0c15 853d ea32 c83b 4b75 793c
-0.057655055 0.055696495 -0.06907803 0.022023482 -0.07219644 -0.049069684 0.07626402 -0.018653434
-0.06829646 0.10796428 -0.022457162 0.11279426 0.05931923 0.029635848 -0.03972124 0.113712065
0.019220319 0.055409025 0.12725192 -0.08724824 0.028837543 -0.016503707 -0.012929855 0.025787847
-0.041583467 -0.03649649 0.14802542 0.038057618 0.020826451 -0.00077111577 0.012790047 0.05870849
0.058575485 -0.058425225 0.0900745 0.03558293 -0.027527928 -0.043583542 -0.016569303 0.01068202
-0.004173168 -0.061925575 0.055424493 0.15285581 -0.08876859 0.060283687 0.07260594 0.06825847
-0.010922812 -0.008911502 0.09208652 0.040667217 0.12388375 0.031426996 0.09251908 -0.085081294
0.102951564 -0.056004327 0.051704526 0.049221154 0.11356253 0.05957078 0.16322401 0.023451393
0.024693748 -0.06966875 0.005793688 0.058333177 -0.08801348 -0.015145209 0.027268272 0.003491111
-0.06874578 -0.02197991 0.005397485 -0.054784518 -0.019101908 0.062390458 0.075834565 -0.0648451
0.071082026 0.091726646 -0.045894872 0.047891784 0.05626705 -0.047683988 -0.05196239 0.067323506
-0.0011709284 0.057158638 0.0125412345 0.08244308 -0.04236742 0.0049058134 0.0859763 0.020173287
-0.07932021 0.21176712 0.056165602 0.0044151573 0.028064659 -0.09718407 0.06303096 0.12104885
-0.077179275 -0.09297648 0.07033405 -0.09302939 0.11311479 0.078792796 -0.08145778 -0.06835826
0.124455646 -0.112575 0.044964645 -0.07480917 0.12580673 0.031513777 -0.035608318 0.05693269
0.026173223 -0.030783098 -0.067537494 0.19011234 -0.11080758 0.06498155 0.006109585 0.015225719

layers.4.weight f4 [132, 128]
00000000: 5963 aa3c f76a aabd 62ac a9bd f00b 47bc
00000010: 5a41 383d ea32 10bb bfdd 9cbd be89 89bc
00000020: 406b 873b 0c0f bcbc 6772 93bc 2f36 f4bd
00000030: 71c8 843c 812e 3d3d e224 04bd c10a 03bd
00000040: f158 3ebd a7e2 9c3b 0f58 89ba 2704 0cbd
00000050: 65df 6e3b 6fc0 dfbd 2aec a8bc af27 cebc
00000060: 68fd 983c 76ed 7a3d 0761 3ebc 1af9 60bd
00000070: 4f2e fcbd c3a1 9c3d a1eb 91bd 4b86 b0bc
00000080: 507f 3c3c c084 de3c ea11 953c dbcd 5d3d
00000090: 6633 3b3d ff58 e2bd fcdc 17bd 51da 163c
000000a0: 25b9 813d 811b 1dbd e866 1ebe 3084 9dbd
000000b0: 42b3 53bd 2e9d 86bb ff28 f2bd 3367 25bd
000000c0: 6835 b13d 98c9 fdbd 240d 1ebd 27bb 0dbe
000000d0: cd52 48bd c83c b73d 0526 68bd 86f1 f0bc
000000e0: 7cd1 8f3d 0d66 b03d 1a83 003d a0e0 f5bd
000000f0: a5c4 e1bd 1d94 14bd 9585 96bd 1829 08be
00000100: ec58 85bd 281d a53c 51dc 3dbc f27f d73c
00000110: 091c 8cbd 6d3a a8bb bc3a 1abe d730 09be
00000120: b050 3c3c 82ef 673d 4233 18bd 8cf0 9bbd
00000130: c098 90ba b580 dfbd 2ac8 a13c 77c3 8bbd
00000140: 35ba 2dbd fd47 93bd 4cc5 17bd de78 333c
00000150: 0708 75bd 845f 92bc 2d8d a43d a938 49bd
00000160: baf1 bd3d 8fe3 52bd 296b 33bd a5b8 ea3b
00000170: 3171 8dbd a55f 6abc 3856 1fb9 0b7a e73b
00000180: aaf4 6b3c 03ac 3bbd 8197 9f3d 0a9a 833c
00000190: 92dc 35bd 4269 acbd c269 5f3c d262 a9bd
000001a0: 9e10 163d c076 81ba 31a6 d6bb a2d8 8bbd
000001b0: 89f1 f7bc d67c aa3b a7ed 42bd 8804 88bb
000001c0: fd9b 10bd 9a7f 4ebd dafa 60bc b818 96bd
000001d0: 4818 58bd ad97 9fbc 8984 dfbc f4d8 adbc
000001e0: 4d38 8c3d 67e0 2dbd b719 f33c 0396 dcbd
000001f0: a06a 14bc 0de7 d53b 0607 5f3d 93e8 eebd
00000200: 89b5 103d 9a44 ac3c 0f3b c3bd d12c 3d3d
00000210: c654 503d 1e18 00be b26e 8fbd 0b71 0dbe
00000220: c6d5 abbd c91c 0abe d947 ffbd 18ce ffbd
00000230: 0ae3 6e3c 3145 523e e0ce 57bc a618 47bd
00000240: cf10 e1bd fda9 fcbd aaad d63b f377 a43d
00000250: 89a5 62bd 4dce 833c 9b99 8d3e 8c63 8d3d
00000260: 9022 9fbb 9777 ac3b 9829 98bc 61e2 37bd
00000270: b187 2a3c e495 333e ba27 963a cc68 92bd
00000280: 3e84 6c3d c030 d2ba a41b 0dbe c23b 613c
00000290: 00a7 4c3b fcd9 0ebd 10ff bebd bce2 5a3d
000002a0: cebf 5d3d d94c af3d b18b dabd 1033 aebd
000002b0: cd60 08bd 9baf 09bd 7736 f6bd cea1 1b3c
000002c0: 86a4 52bd ab7c 313d bb78 2ebd 72cf 99bd
000002d0: 2aee bbbd 089e e33d cb57 cabb b55b b0bd
000002e0: 0936 2e3e 842d cc3c 09f0 18bc f3f7 52bc
000002f0: 4e0f 39bd 20ac e2bd fe37 853e a586 83ba
00000300: 3cf8 133c cf48 073c ec51 0ebd 959a 993e
00000310: 7be2 6abd 2321 febc 8878 9bbd 9c67 8ebd
00000320: e40a 01bd 24a9 e2bc f1bf 60bd 0a3f 9cbd
00000330: 876b 71bc 1466 07bd 48e5 323c aaf8 1e3d
00000340: bb7d 1d3d 2a1d ed3c 1273 653d 8f22 0b3b
00000350: c1ad c73d ce22 82bd 5057 a0bc 7e64 413c
00000360: 6853 77bc 4447 50bd d610 92bd 8ef0 773e
00000370: dabf 5cbd 8104 6aba 7761 923e ac8e 973e
00000380: 36bb bc3d 0eea c8bb 375f 37bb 68f3 d0bd
00000390: d46f fdbd 55ce abbd 0c94 733e 103d 39bd
000003a0: c033 8abc 92f3 12bd 9120 60bd e161 44bd
000003b0: ea2c 8d3c 01a7 03be 18a5 713c 62d9 c3bd
000003c0: 5cdc 0ebd a857 83bd 7f2c 173d 2975 883d
000003d0: b295 e5bd 09a2 10be f522 98bd 3199 c3bb
000003e0: 08fc 0bbc 4234 703d 7ea9 7c3c 04e1 81bd
000003f0: e239 113d b3f3 aabc 2e7b 9d3d 3251 fb3c
0.020799326 -0.08321183 -0.082848325 -0.012148842 0.0449842 -0.0022003003 -0.07659482 -0.016789313
0.0041326582 -0.022956394 -0.017998887 -0.11924397 0.01620886 0.046186928 -0.032261737 -0.031992678
-0.04647154 0.0047877613 -0.0010478514 -0.034183647 0.0036449071 -0.10925376 -0.020620424 -0.025165407
0.018675521 0.061261617 -0.011619813 -0.05492506 -0.1231352 0.07648041 -0.07125021 -0.02154841
0.011504963 0.02716291 0.018197019 0.054151397 0.045703314 -0.11052131 -0.03707598 0.009207324
0.06334142 -0.038356308 -0.15468943 -0.076912284 -0.051684625 -0.0041080927 -0.11824226 -0.04038162
0.086527646 -0.123919666 -0.03858675 -0.13840924 -0.04890709 0.0894714 -0.056676883 -0.029412042
0.07022378 0.08613215 0.03137503 -0.120057344 -0.11023835 -0.036274064 -0.073496975 -0.13296926
-0.06511101 0.020155504 -0.011588172 0.026306126 -0.06841285 -0.005133918 -0.15061468 -0.13397537
0.011493847 0.056624897 -0.03715826 -0.0761424 -0.0011031851 -0.10913221 0.019748766 -0.06824391
-0.04241391 -0.07191465 -0.03705339 0.01095411 -0.05982211 -0.017867811 0.0803474 -0.0491263
0.09274621 -0.051486548 -0.043803368 0.0071631246 -0.06906355 -0.01430503 -0.0001519554 0.007064109
0.014401594 -0.04581834 0.07792569 0.016064662 -0.044399805 -0.08418514 0.0136360545 -0.082708016
0.03663694 -0.0009877309 -0.0065505733 -0.06828429 -0.03026654 0.00520287 -0.047589924 -0.004150931
-0.035305012 -0.05041466 -0.013731683 -0.073289335 -0.05275753 -0.019481504 -0.027284877 -0.021221615
0.06846676 -0.042450335 0.029675348 -0.107708 -0.0090586245 0.0065277875 0.054450057 -0.11665454
0.035329375 0.021028806 -0.09532749 0.04618532 0.050862096 -0.125092 -0.07003535 -0.13812654
-0.083903834 -0.13487543 -0.12464876 -0.12490481 0.0145804975 0.20534207 -0.013171881 -0.04860749
-0.10989534 -0.1233711 0.006551464 0.08030691 -0.055333648 0.016089583 0.27656254 0.06903753
-0.004856415 0.0052632797 -0.018574521 -0.044893626 0.010408328 0.17537647 0.0011455931 -0.07148895
0.057743303 -0.0016036257 -0.13780075 0.0137471575 0.003122747 -0.034875855 -0.09325993 0.053438887
0.054137997 0.085595794 -0.10671175 -0.08505833 -0.03329544 -0.033614736 -0.12022107 0.009499026
-0.051426433 0.043331783 -0.042595606 -0.0751027 -0.091762856 0.111141264 -0.0061750165 -0.08611242
0.170128 0.024924047 -0.009334573 -0.0128764985 -0.04518061 -0.110679865 0.2601928 -0.0010034634
0.009031352 0.008257105 -0.034746096 0.3000075 -0.057344895 -0.03102166 -0.07591349 -0.06953356
-0.031504527 -0.027668543 -0.05487055 -0.07629211 -0.014735109 -0.033056334 0.010918923 0.038811363
0.038449984 0.02894457 0.056017943 0.0021230315 0.09749938 -0.06354295 -0.019572884 0.011803744
-0.015095569 -0.050849214 -0.071321175 0.24212858 -0.0538939 -0.0008927063 0.28589985 0.29601038
0.09215395 -0.006131417 -0.0027980336 -0.10202676 -0.12374845 -0.08388964 0.23786944 -0.04522425
-0.01687038 -0.035876818 -0.054718558 -0.047944907 0.01723333 -0.12856676 0.014748834 -0.09562947
-0.03487812 -0.064132035 0.03690767 0.066629715 -0.11210193 -0.14124312 -0.074285425 -0.0059691896
-0.008543976 0.058643587 0.015421269 -0.063417464 0.035455592 -0.020868158 0.0768951 0.030678365

layers.4.bias f4 [132]
00000000: 8123 09be d236 a2bd bb5c dbbc d93c a0bd
00000010: 4272 d7bc b286 483d 0a3e b33c 64ed 343d
00000020: 77f4 5bbd c5d5 633c 7f8a 473c 8c27 e13c
00000030: 4e16 e03c 1951 19be cd4c d5bd 0666 e3bd
00000040: 917f f0bd 31f2 6abd 4810 e33c 4a0a 96bd
00000050: 2381 dabd 4fa6 e5bd 6950 90bd e0a1 2cbd
00000060: 2325 19be 83a3 103d 5168 02bd 5bce 68bd
00000070: d57f 61bd a648 fbbb 2b02 d7bc a214 08bc
00000080: aa21 21bd 000e 8e3c 6642 8fbd d8d5 ebbd
00000090: c983 8dbd 71f5 9f3c 78b3 9dbc e6fa f6bd
000000a0: 3264 e9bc 8af0 8fbd 82f0 05bd 32b0 cfbd
000000b0: 0956 a0bd 58ef 12bd 34f8 183c 049d d8bd
000000c0: 32d3 abbb 452e 89bc 561a 67bd f7ea 3cbd
000000d0: 9ab4 193d b383 70bd 1fa6 7bbb 785a 1fbd
000000e0: 0638 64bd aef8 9fbd 2060 a2bb 52f2 0f3d
000000f0: 00d6 f8bc ff1f c6bd a59a 6fbd d785 563d
00000100: 7deb 82bd 97b9 4fbd aaeb 583d b3c4 263d
00000110: d440 f53c e243 723c df0b 5fbd 2d91 b8bd
00000120: ec5f cf3c d8cc 953c 8563 8b3d 2dee 9e3d
00000130: 6e46 51bd 0911 ccbd 6767 c53a 4554 2e3d
00000140: a4f9 35bd 71b7 3fbd ac0f b0bb e483 b93c
00000150: ff49 92bd 5b2e 84bd 6451 b4bd 874a ca3b
00000160: 5eb9 b7bd fd5c 92bd 86b2 293d 4ac2 bdbd
00000170: a331 b5bd e885 64bd d0e0 19be 2d1e f9bd
00000180: 02fc 86bd 59db adbd ec2d a9bc 1f85 cf3c
00000190: 4a1d b7bd d217 70bd ad2a 23bb 8bae edbd
000001a0: 6d98 a8bd 23d1 afbd cf6e febc 87f8 9fbd
000001b0: 7a0f 1cbe f29f 9abb 4cb2 0fbd a52d dfbc
000001c0: bdec b7bd c162 41bd 4e37 103d 449f 8dbd
000001d0: facd 18bc ab27 b3bc 5d59 80bd 781a 40bd
000001e0: 1289 03be 349a e3bc e3e3 c6bd dd6f 14bd
000001f0: 128a bdbc 6a1a 23bd d230 413d e42f f2bd
00000200: 7bb6 b5ba ce0b 763d afb1 ae3d d2fb 76bd
-0.1339245 -0.079206124 -0.026777616 -0.07824106 -0.0262996 0.04895658 0.021880168 0.044171706
-0.053699937 0.013905947 0.012179016 0.027484678 0.027354386 -0.14972343 -0.10415039 -0.11103444
-0.11743081 -0.057359878 0.027717724 -0.07326181 -0.10669162 -0.112133615 -0.07046587 -0.042146564
-0.14955573 0.035312187 -0.031837765 -0.05683742 -0.05505355 -0.0076685725 -0.026246151 -0.0083057005
-0.039338745 0.01734066 -0.06995086 -0.11515397 -0.06909902 0.019526215 -0.019250616 -0.12059574
-0.02849016 -0.07028301 -0.03270007 -0.101410285 -0.0782891 -0.035872787 0.00933652 -0.10576823
-0.0052436823 -0.016745696 -0.0564216 -0.046122517 0.03752575 -0.05871935 -0.0038398576 -0.038904637
-0.05571749 -0.07811104 -0.0049553066 0.035143204 -0.03037548 -0.096740715 -0.05849709 0.052373733
-0.06392572 -0.0507141 0.05295912 0.04071493 0.029938139 0.014786692 -0.05445468 -0.09012065
0.025314294 0.018286154 0.06806091 0.07760272 -0.051092558 -0.09964187 0.0015060724 0.042560834
-0.04442753 -0.046805803 -0.005372962 0.022645898 -0.0714302 -0.06454154 -0.088045865 0.006173435
-0.08970903 -0.07146642 0.04143002 -0.09265573 -0.08847358 -0.055791765 -0.15027165 -0.12163959
-0.065910354 -0.08489103 -0.02065178 0.025332032 -0.08941133 -0.058616467 -0.0024897263 -0.11605557
-0.08232198 -0.085848115 -0.031058697 -0.07811075 -0.15240279 -0.004718774 -0.035082147 -0.027243445
-0.08980701 -0.04721332 0.035208993 -0.06915143 -0.009326452 -0.021869501 -0.06267045 -0.046900243
-0.12845257 -0.02778349 -0.09711435 -0.036239494 -0.023137126 -0.039820112 0.0471657 -0.11825541
-0.0013863588 0.06006985 0.08529984 -0.06029875
